{
  "experimentName": "TimeSeriesTransformer2021_12_01_13_57_34_315961",
  "modelType": "TimeSeriesTransformer",
  "modelWrapper": "TimeSeriesTransformer(\n  (transformer): Transformer(\n    (encoder): TransformerEncoder(\n      (layers): ModuleList(\n        (0): TransformerEncoderLayer(\n          (self_attn): MultiheadAttention(\n            (out_proj): NonDynamicallyQuantizableLinear(in_features=160, out_features=160, bias=True)\n          )\n          (linear1): Linear(in_features=160, out_features=160, bias=True)\n          (dropout): Dropout(p=0.01, inplace=False)\n          (linear2): Linear(in_features=160, out_features=160, bias=True)\n          (norm1): LayerNorm((160,), eps=1e-05, elementwise_affine=True)\n          (norm2): LayerNorm((160,), eps=1e-05, elementwise_affine=True)\n          (dropout1): Dropout(p=0.01, inplace=False)\n          (dropout2): Dropout(p=0.01, inplace=False)\n        )\n        (1): TransformerEncoderLayer(\n          (self_attn): MultiheadAttention(\n            (out_proj): NonDynamicallyQuantizableLinear(in_features=160, out_features=160, bias=True)\n          )\n          (linear1): Linear(in_features=160, out_features=160, bias=True)\n          (dropout): Dropout(p=0.01, inplace=False)\n          (linear2): Linear(in_features=160, out_features=160, bias=True)\n          (norm1): LayerNorm((160,), eps=1e-05, elementwise_affine=True)\n          (norm2): LayerNorm((160,), eps=1e-05, elementwise_affine=True)\n          (dropout1): Dropout(p=0.01, inplace=False)\n          (dropout2): Dropout(p=0.01, inplace=False)\n        )\n        (2): TransformerEncoderLayer(\n          (self_attn): MultiheadAttention(\n            (out_proj): NonDynamicallyQuantizableLinear(in_features=160, out_features=160, bias=True)\n          )\n          (linear1): Linear(in_features=160, out_features=160, bias=True)\n          (dropout): Dropout(p=0.01, inplace=False)\n          (linear2): Linear(in_features=160, out_features=160, bias=True)\n          (norm1): LayerNorm((160,), eps=1e-05, elementwise_affine=True)\n          (norm2): LayerNorm((160,), eps=1e-05, elementwise_affine=True)\n          (dropout1): Dropout(p=0.01, inplace=False)\n          (dropout2): Dropout(p=0.01, inplace=False)\n        )\n      )\n      (norm): LayerNorm((160,), eps=1e-05, elementwise_affine=True)\n    )\n    (decoder): TransformerDecoder(\n      (layers): ModuleList(\n        (0): TransformerDecoderLayer(\n          (self_attn): MultiheadAttention(\n            (out_proj): NonDynamicallyQuantizableLinear(in_features=160, out_features=160, bias=True)\n          )\n          (multihead_attn): MultiheadAttention(\n            (out_proj): NonDynamicallyQuantizableLinear(in_features=160, out_features=160, bias=True)\n          )\n          (linear1): Linear(in_features=160, out_features=160, bias=True)\n          (dropout): Dropout(p=0.01, inplace=False)\n          (linear2): Linear(in_features=160, out_features=160, bias=True)\n          (norm1): LayerNorm((160,), eps=1e-05, elementwise_affine=True)\n          (norm2): LayerNorm((160,), eps=1e-05, elementwise_affine=True)\n          (norm3): LayerNorm((160,), eps=1e-05, elementwise_affine=True)\n          (dropout1): Dropout(p=0.01, inplace=False)\n          (dropout2): Dropout(p=0.01, inplace=False)\n          (dropout3): Dropout(p=0.01, inplace=False)\n        )\n        (1): TransformerDecoderLayer(\n          (self_attn): MultiheadAttention(\n            (out_proj): NonDynamicallyQuantizableLinear(in_features=160, out_features=160, bias=True)\n          )\n          (multihead_attn): MultiheadAttention(\n            (out_proj): NonDynamicallyQuantizableLinear(in_features=160, out_features=160, bias=True)\n          )\n          (linear1): Linear(in_features=160, out_features=160, bias=True)\n          (dropout): Dropout(p=0.01, inplace=False)\n          (linear2): Linear(in_features=160, out_features=160, bias=True)\n          (norm1): LayerNorm((160,), eps=1e-05, elementwise_affine=True)\n          (norm2): LayerNorm((160,), eps=1e-05, elementwise_affine=True)\n          (norm3): LayerNorm((160,), eps=1e-05, elementwise_affine=True)\n          (dropout1): Dropout(p=0.01, inplace=False)\n          (dropout2): Dropout(p=0.01, inplace=False)\n          (dropout3): Dropout(p=0.01, inplace=False)\n        )\n        (2): TransformerDecoderLayer(\n          (self_attn): MultiheadAttention(\n            (out_proj): NonDynamicallyQuantizableLinear(in_features=160, out_features=160, bias=True)\n          )\n          (multihead_attn): MultiheadAttention(\n            (out_proj): NonDynamicallyQuantizableLinear(in_features=160, out_features=160, bias=True)\n          )\n          (linear1): Linear(in_features=160, out_features=160, bias=True)\n          (dropout): Dropout(p=0.01, inplace=False)\n          (linear2): Linear(in_features=160, out_features=160, bias=True)\n          (norm1): LayerNorm((160,), eps=1e-05, elementwise_affine=True)\n          (norm2): LayerNorm((160,), eps=1e-05, elementwise_affine=True)\n          (norm3): LayerNorm((160,), eps=1e-05, elementwise_affine=True)\n          (dropout1): Dropout(p=0.01, inplace=False)\n          (dropout2): Dropout(p=0.01, inplace=False)\n          (dropout3): Dropout(p=0.01, inplace=False)\n        )\n      )\n      (norm): LayerNorm((160,), eps=1e-05, elementwise_affine=True)\n    )\n  )\n  (projection): Linear(in_features=160, out_features=1, bias=True)\n  (encoder_embedding): TotalEmbedding(\n    (value_embedding): ValueEmbedding(\n      (linear): Linear(in_features=1, out_features=160, bias=True)\n    )\n    (time_embedding): TimeEmbedding(\n      (linear): Linear(in_features=10, out_features=160, bias=True)\n    )\n    (positional_encoding): PositionalEncoding()\n    (linear_embedding_weight): Linear(in_features=3, out_features=1, bias=True)\n    (dropout): Dropout(p=0.01, inplace=False)\n  )\n  (decoder_embedding): TotalEmbedding(\n    (value_embedding): ValueEmbedding(\n      (linear): Linear(in_features=1, out_features=160, bias=True)\n    )\n    (time_embedding): TimeEmbedding(\n      (linear): Linear(in_features=10, out_features=160, bias=True)\n    )\n    (positional_encoding): PositionalEncoding()\n    (linear_embedding_weight): Linear(in_features=3, out_features=1, bias=True)\n    (dropout): Dropout(p=0.01, inplace=False)\n  )\n  (relu): ReLU()\n)",
  "trainingConfig": {
    "model": "TimeSeriesTransformer",
    "forecasting_horizon": 24,
    "predict_single_value": false,
    "time_series_window": 168,
    "include_time_context": true,
    "learning_rate": 0.0001,
    "batch_size": 32,
    "max_epochs": 200,
    "use_early_stopping": true,
…
