{
  "experimentName": "TimeSeriesTransformer2021_11_19_19_59_16_035316",
  "modelType": "TimeSeriesTransformer",
  "modelWrapper": "TimeSeriesTransformer(\n  (linear): Linear(in_features=9, out_features=9, bias=True)\n  (linear2): Linear(in_features=9, out_features=9, bias=True)\n  (transformer): Transformer(\n    (encoder): TransformerEncoder(\n      (layers): ModuleList(\n        (0): TransformerEncoderLayer(\n          (self_attn): MultiheadAttention(\n            (out_proj): NonDynamicallyQuantizableLinear(in_features=9, out_features=9, bias=True)\n          )\n          (linear1): Linear(in_features=9, out_features=36, bias=True)\n          (dropout): Dropout(p=0.1, inplace=False)\n          (linear2): Linear(in_features=36, out_features=9, bias=True)\n          (norm1): LayerNorm((9,), eps=1e-05, elementwise_affine=True)\n          (norm2): LayerNorm((9,), eps=1e-05, elementwise_affine=True)\n          (dropout1): Dropout(p=0.1, inplace=False)\n          (dropout2): Dropout(p=0.1, inplace=False)\n        )\n      )\n      (norm): LayerNorm((9,), eps=1e-05, elementwise_affine=True)\n    )\n    (decoder): TransformerDecoder(\n      (layers): ModuleList(\n        (0): TransformerDecoderLayer(\n          (self_attn): MultiheadAttention(\n            (out_proj): NonDynamicallyQuantizableLinear(in_features=9, out_features=9, bias=True)\n          )\n          (multihead_attn): MultiheadAttention(\n            (out_proj): NonDynamicallyQuantizableLinear(in_features=9, out_features=9, bias=True)\n          )\n          (linear1): Linear(in_features=9, out_features=36, bias=True)\n          (dropout): Dropout(p=0.1, inplace=False)\n          (linear2): Linear(in_features=36, out_features=9, bias=True)\n          (norm1): LayerNorm((9,), eps=1e-05, elementwise_affine=True)\n          (norm2): LayerNorm((9,), eps=1e-05, elementwise_affine=True)\n          (norm3): LayerNorm((9,), eps=1e-05, elementwise_affine=True)\n          (dropout1): Dropout(p=0.1, inplace=False)\n          (dropout2): Dropout(p=0.1, inplace=False)\n          (dropout3): Dropout(p=0.1, inplace=False)\n        )\n      )\n      (norm): LayerNorm((9,), eps=1e-05, elementwise_affine=True)\n    )\n  )\n  (proj1): Linear(in_features=9, out_features=64, bias=True)\n  (proj2): Linear(in_features=64, out_features=64, bias=True)\n  (projection): Linear(in_features=9, out_features=1, bias=True)\n)",
  "trainingConfig": {
    "model": "TimeSeriesTransformer",
    "forecasting_horizon": 24,
    "predict_single_value": false,
    "time_series_window": 168,
    "include_time_context": true,
    "learning_rate": 0.001,
    "max_epochs": 2000,
    "use_early_stopping": true,
    "early_stopping_patience": 10,
    "learning_rate_scheduler_step": 995,
    "learning_rate_scheduler_gamma": 1,
…
